data.pth (torch, 3882 bytes, 6 tensors)

l1.weight f4 [8, 21]
0.5541949 0.22344993 -0.21205178 -0.39176187 0.04089325 -0.16791789 -0.120399125 -0.026737884
-0.34110516 0.10776791 -0.3410285 -0.34104806 -0.09175636 -0.055815436 0.09784916 0.29513776
-0.25678393 0.608672 0.3256818 -0.078126654 0.3135454 0.5660332 0.21301293 0.08066622
-0.19540235 -0.19900651 0.04012209 -0.25045636 -0.14355212 -0.1982034 0.057661023 -0.21031943
-0.21058305 -0.006147711 -0.25576884 0.0016326674 0.24156934 -0.3092421 0.6825195 0.16338746
0.06135567 0.11602284 -0.10512609 0.11425262 0.42728987 0.122443825 0.102801606 0.27289262
0.41362497 0.005788359 0.6161989 -0.103673354 0.41806287 0.5213893 0.2017177 0.16163704
0.24210005 -0.18504082 0.002638234 -0.5229611 -0.3141493 0.2193681 -0.07949721 -0.004715544
0.13156943 0.41670123 0.59347045 -0.30482015 0.5157157 0.2868786 -0.30466992 0.64125854
0.14798716 0.55217886 0.76030624 0.40337217 0.2378084 -0.112718664 0.027199551 -0.11174645
0.07470395 -0.20956331 0.41604605 -0.0792685 0.18259539 0.21005352 0.4345776 0.5073806
-0.36485025 0.56034756 0.38745824 -0.36485115 0.7458081 0.27783382 0.6513101 0.5718691
0.1861765 0.32973635 -0.3490425 0.35110253 -0.289279 0.25541154 0.18732516 0.4432038
0.27347383 0.11804509 0.24667715 0.31964955 0.1701969 -0.27486432 0.20883396 0.2925698
-0.23865128 0.3558361 -0.05564948 0.7258221 0.6032212 0.49377412 0.33597732 -0.07475373
0.029000714 -0.12715964 0.043264944 0.12784815 0.25866005 0.057639908 -0.06364731 -0.083810225
0.14900833 0.44814116 0.23533224 0.31074488 0.2773103 0.40773502 0.19553225 -0.06706848
0.3560306 0.5026677 0.14769116 0.16008772 0.32630268 -0.1649222 0.23352507 -0.6492666
-0.43344656 0.08290157 0.12752007 -0.32714105 0.034876723 0.123240724 0.21123596 -0.20606677
0.18372989 0.44221896 -0.2736707 0.22651759 0.10354775 0.28645888 0.43355066 0.47890285
0.26306108 -0.09530921 0.18126363 -0.27849633 -0.46757334 -0.24399583 0.29197845 1.6538357e-05
00000000: b8df 0d3f 0fd0 643e 1a24 59be 0395 c8be
00000010: ae7f 273d abf2 2bbe d193 f6bd 6809 dbbc
00000020: 56a5 aebe 6cb5 dc3d 4a9b aebe da9d aebe
00000030: c2ea bbbd ba9e 64bd 2465 c83d 4c1c 973e
00000040: 2f79 83be eed1 1b3f c4bf a63e de00 a0bd
00000050: 0689 a03e 8de7 103f 1020 5a3e 5534 a53d
00000060: 8e17 48be 5dc8 4bbe 1057 243d d13b 80be
00000070: 54ff 12be d5f5 4abe f72d 6c3d fa5d 57be
00000080: 15a3 57be bd72 c9bb 22f4 82be 3aff d53a
00000090: f45d 773e fb54 9ebe 99b9 2e3f 0b4f 273e
000000a0: 1550 7b3d 629d ed3d 594c d7bd 47fd e93d
000000b0: bdc5 da3e d4c3 fa3d a689 d23d 95b8 8b3e
000000c0: a7c6 d33e 46ac bd3b 36bf 1d3f b252 d4bd
000000d0: 560c d63e c579 053f 168f 4e3e 2e84 253e
000000e0: 13e9 773e 577b 3dbe 39e6 2c3b c7e0 05bf
000000f0: 2dd8 a0be 08a2 603e 6fcf a2bd da84 9abb
00000100: 23ba 063e dd59 d53e aeed 173f 6311 9cbe
00000110: f205 043f c0e1 923e b2fd 9bbe 8529 243f
00000120: f289 173e 985b 0d3f 6ea3 423f cc86 ce3e
00000130: 0c84 733e 0bd9 e6bd 98d1 de3c 53db e4bd
00000140: 62fe 983d c497 56be fd03 d53e 8657 a2bd
00000150: 49fa 3a3e 4518 573e f580 de3e b2e3 013f
00000160: a7cd babe f072 0f3f ed60 c63e c5cd babe
00000170: 48ed 3e3f 3c40 8e3e 42bc 263f 0366 123f
00000180: 0da5 3e3e 34d3 a83e b3b5 b2be b6c3 b33e
00000190: 611c 94be 4dc5 823e 2bd2 3f3e 9ceb e23e
000001a0: c304 8c3e a0c1 f13d ef98 7c3e 1ba9 a33e
000001b0: 1948 2e3e 04bb 8cbe 92d8 553e b5cb 953e
000001c0: 0061 74be 2630 b63e b6f0 63bd 7acf 393f
000001d0: b46c 1a3f f6cf fc3e 3805 ac3e 7c18 99bd
000001e0: e892 ed3c 2336 02be 9536 313d a0ea 023e
000001f0: 176f 843e d317 6c3d 8559 82bd b2a4 abbd
00000200: a495 183e c272 e53e effa 703e f419 9f3e
00000210: 9efb 8d3e a5c2 d03e 9b39 483e 335b 89bd
00000220: a549 b63e d5ae 003f 5a3c 173e 09ee 233e
00000230: 2511 a73e 5de1 28be 3221 6f3e 5636 26bf
00000240: b5ec ddbe 4cc8 a93d 9f94 023e 087f a7be
00000250: e5da 0e3d a265 fc3d 3d4e 583e 2b03 53be
00000260: b023 3c3e 866a e23e 911e 8cbe 3af4 673e
00000270: d810 d43d bdaa 923e 5afa dd3e c132 f53e
00000280: f1af 863e 7a31 c3bd 2c9d 393e 1297 8ebe
00000290: c665 efbe 0bda 79be 337e 953e dabb 8a37

l1.bias f4 [8]
0.34105396 0.21031535 0.52296084 0.30466968 0.36485812 0.49287367 0.6829004 0.46758434
00000000: a09e ae3e e85c 573e c3e0 053f aafd 9b3e
00000010: afce ba3e f059 fc3e 90d2 2e3f 3767 ef3e

l2.weight f4 [8, 8]
-0.51388717 -0.6059759 0.7558972 0.191926 0.30289358 0.6194385 0.9497479 0.7018052
-0.55078256 -0.7480577 0.05289096 1.0929445 1.1073812 0.92464525 0.12589347 0.678598
-0.6776 -0.13376991 0.49011615 0.8576092 0.5495714 0.43967512 0.2868314 0.83754903
1.02444 0.29280713 0.53539443 -0.7051337 -1.0666001 0.220031 0.90860945 0.15220027
0.7725934 0.97088337 -0.40189505 0.6620939 1.0408611 0.75914747 -0.5626629 -0.13945377
-0.16812065 -0.04072267 -0.18139632 0.15344897 -0.0056429505 -0.2991708 0.048143327 -0.22575508
0.7187495 0.4773646 -0.5050784 0.693643 0.74955136 0.7683811 -0.44367054 -0.28498647
-0.5056911 -0.6896687 0.43085727 0.3879879 0.48828846 0.58597517 1.0122384 0.7627955
00000000: 1c8e 03bf 3d21 1bbf 7b82 413f 4088 443e
00000010: de14 9b3e 8693 1e3f ae22 733f 81a9 333f
00000020: 1600 0dbf b680 3fbf 31a4 583d 9be5 8b3f
00000030: abbe 8d3f 8db5 6c3f 38ea 003e 99b8 2d3f
00000040: 3277 2dbf fbfa 08be 81f0 fa3e 478c 5b3f
00000050: b6b0 0c3f 191d e13e 91db 923e 9d69 563f
00000060: da20 833f d1ea 953e 9c0f 093f a483 34bf
00000070: 5a86 88bf ce4f 613e a19a 683f 63da 1b3e
00000080: aec8 453f d08b 783f 30c5 cdbe fc7e 293f
00000090: f03a 853f 7d57 423f ad0a 10bf f8cc 0ebe
000000a0: d227 2cbe d0cc 26bd f5bf 39be ba21 1d3e
000000b0: 80e8 b8bb ea2c 99be f031 453d 572c 67be
000000c0: f8ff 373f 2269 f43e d14c 01bf 9692 313f
000000d0: 99e2 3f3f a0b4 443f c928 e3be bfe9 91be
000000e0: f974 01bf 218e 30bf 5399 dc3e 5aa6 c63e
000000f0: f200 fa3e 7802 163f 0791 813f 9146 433f

l2.bias f4 [8]
0.40418592 -0.30898598 -0.6245776 0.5186058 0.33329597 -0.21987113 0.35053593 0.5028859
00000000: 75f1 ce3e 6933 9ebe 51e4 1fbf 5ac3 043f
00000010: c5a5 aa3e e625 61be 7279 b33e 21bd 003f

l3.weight f4 [3, 8]
0.5692802 -1.3944163 -1.0580937 0.8860338 -0.65084434 0.318148 -1.2286211 0.69291145
0.14856131 0.9464161 0.59044725 -1.0203667 -0.09775156 -0.046239406 -0.8711143 0.11392427
-0.7384486 -0.42947564 -0.70577824 -0.31344044 0.8772853 0.33359703 0.50288785 -0.7514779
00000000: 59bc 113f 3c7c b2bf 9d6f 87bf 1cd3 623f
00000010: bc9d 26bf 4be4 a23e 7543 9dbf a562 313f
00000020: 7520 183e 5348 723f 8d27 173f 609b 82bf
00000030: f831 c8bd 8865 3dbd 5901 5fbf 2151 e93d
00000040: f80a 3dbf 3be4 dbbe e2ad 34bf 447b a0be
00000050: c595 603f 3bcd aa3e 42bd 003f db60 40bf

l3.bias f4 [3]
0.32180992 -0.30000544 0.14078242
00000000: 45c4 a43e 509a 99be 4429 103e
